trained_models/gmf_ml.pt (torch, 236383 bytes, 3 tensors)

weight f4 [6040, 6]
0	0xbe2ec28d	-0.17066403
1	0x3d8f6f93	0.07003703
2	0x3ff43f53	1.9081825
3	0xbef704a1	-0.4824572
4	0x3e14afd6	0.14520201
5	0xbeae3847	-0.3402731
6	0x3ef9de88	0.4880259
7	0x3f4e8b64	0.80681443
8	0x3ea9d6f0	0.33171797
9	0xbf24d770	-0.6439123
10	0x3fa85e4b	1.3153776
11	0xbf220a23	-0.6329672
12	0xbde37f3c	-0.111082524
13	0x3fa8376b	1.3141912
14	0x3f45e75f	0.7730617
15	0xbf4401b3	-0.7656509
16	0x3d1de888	0.038551837
17	0xbf17eb29	-0.593432
18	0x3f82afc1	1.0209886
19	0x3f929f50	1.1454868
20	0x3fbb132f	1.4615229
21	0x3efbcc65	0.49179378
22	0x3fa5a828	1.2941942
23	0xbd3da5a2	-0.046300538
24	0x3f224f2b	0.6340205
25	0xbe976cfb	-0.29575333
26	0x3e30c66a	0.17263189
27	0x3f2a3615	0.6648877
28	0x3ec8bc4f	0.39206168
29	0x4006323c	2.096816
30	0x3f1af471	0.6052924
31	0x3ea63be9	0.32467583
32	0x3e225371	0.15852143
33	0xbf8bad70	-1.0912304
34	0x3f8dbd02	1.1073306
35	0xbfb63c17	-1.4237088
36	0xbf4a1fcd	-0.78954774
37	0x3f9b5208	1.2134409
38	0x3f932021	1.149418
39	0xbf67a50e	-0.9048623
40	0xbefbd7fa	-0.49188215
41	0x3e35974a	0.17733493
42	0xbd84763d	-0.06467865
43	0x3f872be3	1.0560268
44	0x3fb5c34b	1.4200224
45	0xbeff3706	-0.49846667
46	0xbe8a5226	-0.270158
47	0x3f0300df	0.51173204
48	0xbcfc672f	-0.03081092
49	0x3f87f067	1.062024
50	0x3f321b14	0.6957257
51	0xbe8d27d9	-0.27569464
52	0x3ea6fa84	0.32613003
53	0x3f2be85e	0.6715144
54	0x3f65f2ee	0.89823806
55	0x3e4f5874	0.20248586
56	0x3f474adf	0.7784862
57	0xbffa6309	-1.9561473
58	0xbe6ea38f	-0.2330458
59	0xbebfcaf4	-0.37459528
60	0x3f32adc4	0.69796395
61	0x4008e866	2.1391845
62	0xbec329e2	-0.38117892
63	0x3e2a9881	0.16659738
64	0xbe824713	-0.2544485
65	0x3f79a105	0.9751132
66	0xbe8db3ea	-0.27676326
67	0x3faa6357	1.3311566
68	0x3f984ab4	1.1897798
69	0xbe00030b	-0.12501161
70	0xbe453ed4	-0.19262248
71	0xbe83f301	-0.25771335
72	0xbd3c885e	-0.046028487
73	0x3f50007b	0.81250733
74	0x3f10694c	0.5641067
75	0xbeaa768a	-0.33293563
76	0x3f3a8a04	0.72866845
77	0xbd4bff1d	-0.04980384
78	0x3f9e577d	1.2370449
79	0x3fb4bab9	1.4119483
80	0x3d3339b9	0.04375622
81	0x3eb456e2	0.35222536
82	0x3f039d92	0.5141231
83	0xbec2034a	-0.37893134
84	0xbea0cd4c	-0.3140663
85	0x3f6c332e	0.92265594
86	0x3e66202b	0.22473209
87	0xbed6e243	-0.419695
88	0x3f085155	0.532491
89	0xbef2deea	-0.47435695
90	0x3cc49f89	0.024001854
91	0xbe1a7cba	-0.15086642
92	0x3f2990e1	0.6623669
93	0xbfb36d81	-1.4017793
94	0x3ff67935	1.925574
95	0x3ea4dfa0	0.32201862
96	0x3f3aafae	0.72924316
97	0x3ef855f2	0.4850307
98	0x3fa199bf	1.2625045
99	0xbf928531	-1.1446897
100	0xbec050db	-0.37561688
101	0x3f4d467c	0.80185676
102	0x3fbe5ddb	1.4872392
103	0x3f916fbe	1.1362226
104	0x3ef8f9f4	0.486282
105	0xbfb645ed	-1.424009
106	0x3f08fd80	0.5351181
107	0x3f5ca2dd	0.8618601
108	0xbdafb308	-0.085790694
109	0x3f9cb24f	1.2241915
110	0x3ea2b97e	0.31782144
111	0xbf5cdf1f	-0.86277956
112	0xbe7c65d8	-0.24648225
113	0x3f32225e	0.6958369
114	0x3e944e57	0.2896602
115	0x3f4368ee	0.76331985
116	0x3f5cc7a2	0.86242115
117	0xbf9d7210	-1.2300434
118	0xbec4e169	-0.38453224
119	0x3f2782ea	0.65434134
120	0xbe80a3b2	-0.2512489
121	0x3ecdc91f	0.40192506
122	0xbfd99d1e	-1.7001073
123	0xbeda0864	-0.42584527
124	0xbf0584ea	-0.52155936
125	0x401174de	2.272758
126	0x3ef09ccb	0.46994624
127	0x3f3100c4	0.69141793
128	0x3e81c5d3	0.2534624
129	0x3e5d6ebf	0.21624278
130	0xbe842597	-0.2580993
131	0x3fa5d2c0	1.2954941
132	0xbf1e6967	-0.6187958
133	0x3ee3fdde	0.44529623
134	0x3ea3bd66	0.31980437
135	0xbee50eb1	-0.4473777
136	0x3cc5be43	0.024138575
137	0x3f83ae00	1.0287476
138	0x3f231e27	0.63717884
139	0x3dbf87b6	0.09352057
140	0x3f97569a	1.1823304
141	0xbf35816c	-0.7090061
142	0x3f07844c	0.52936244
143	0x3f709315	0.9397443
144	0xbe03072e	-0.12795708
145	0x3f9f2b45	1.243508
146	0xbf03673a	-0.51329386
147	0xbfa6113e	-1.2974012
148	0xbedbf469	-0.42959908
149	0x3f58dd1c	0.84712386
150	0x3ec174df	0.37784478
151	0x3f7b6c3e	0.9821204
152	0x3f037336	0.5134767
153	0x3edcf09e	0.43152326
154	0x3f02ce09	0.51095635
155	0xbf9385a5	-1.152516
156	0x3f86adc5	1.052178
157	0x3f70cf78	0.9406657
158	0x3efeb8aa	0.49750262
159	0x3f0f7cf2	0.56050026
160	0x3fc0af5b	1.5053514
161	0x3f98d18b	1.1938947
162	0x3f7a3ba6	0.97747266
163	0x3eb71d91	0.35764745
164	0x3e9d9a2d	0.3078169
165	0xbe173cce	-0.14769289
166	0x3f38e494	0.7222378
167	0x3f7f479a	0.9971863
168	0xbf6b0878	-0.918098
169	0x3f352fd0	0.7077608
170	0x3f8ed41b	1.115848
171	0x3f0629ba	0.5240742
172	0x3c8b54ae	0.017008152
173	0x3da179c8	0.07884556
174	0xbd8696d2	-0.065717354
175	0xbe854bdf	-0.26034448
176	0x3eae9ac7	0.3410246
177	0xbf938c83	-1.1527256
178	0x3df91cb8	0.12163681
179	0x3f64ce94	0.89377713
180	0xbd863fe3	-0.06555154
181	0x3efd99f1	0.4953151
182	0x3ec1cdd2	0.3785234
183	0xbfa23432	-1.2672179
184	0x3f61ded9	0.88230664
185	0x3ed5ac12	0.41732842
186	0x3f717aa1	0.9432774
187	0x3f23f035	0.640384
188	0x3f31ed64	0.69502854
189	0xbe5e0756	-0.21682486
190	0x3ea3d1d6	0.3199603
191	0xbecfd908	-0.4059527
192	0xbf3999a7	-0.7250008
193	0x3f03d862	0.5150205
194	0x3f717239	0.94314915
195	0xbe312040	-0.17297459
196	0x3f0bd3b5	0.54619914
197	0xbe62c331	-0.22144772
198	0x3e153402	0.1457062
199	0x3f90365f	1.1266593
200	0x3f7dd72a	0.9915644
201	0xbf99b100	-1.2007141
202	0x3e8993d5	0.268706
203	0x3e018fbb	0.12652485
204	0x3fb5fe5e	1.4218252
205	0x3f1e406d	0.61817056
206	0x3e16d73a	0.1473054
207	0x3ee09379	0.43862513
208	0x3f16ab41	0.5885506
209	0x3f5b3a43	0.85635775
210	0x3e3ec65a	0.18630353
211	0x3edf895c	0.43659484
212	0x3fdc195a	1.7195237
213	0xbf929349	-1.1451198
214	0xbe847a56	-0.25874585
215	0x3e4449e2	0.19168809
216	0x400ff22e	2.2491565
217	0x3e513739	0.20431222
218	0xbe15ae79	-0.14617337
219	0xbfba94d1	-1.4576665
220	0x3f687ce9	0.908156
221	0xbf8ecec9	-1.1156856
222	0x3e9c0e12	0.30479485
223	0x3f534276	0.82523286
224	0x3f314b56	0.6925558
225	0xbf808827	-1.004155
226	0x3f3e025b	0.74222344
227	0x3e590e41	0.21196844
228	0x3fd3cf19	1.6547576
229	0x3f845bef	1.0340556
230	0x3ea76598	0.32694697
231	0xbf3ffc8f	-0.7499475
232	0xbd1e85c2	-0.03870178
233	0x3f87ca3f	1.0608596
234	0x3f4aff02	0.7929536
235	0x3ef895bd	0.4855174
236	0x3f1c5df4	0.6108086
237	0xbf6206c7	-0.8829159
238	0x3f2d263f	0.67636484
239	0x3f17c0e9	0.5927873
240	0x400372ca	2.0538812
241	0x3f90d0d7	1.1313733
242	0xbf18a99d	-0.5963381
243	0xbfccc6f9	-1.5998222
244	0x3f2e68ca	0.68128645
245	0xbef2153b	-0.47281823
246	0xbeaeb33a	-0.34121114
247	0x3eeb4aea	0.45955592
248	0x3f35f519	0.71077114
249	0xbf8f172b	-1.1178945
250	0xbe86d372	-0.26333195
251	0x3ea87d8d	0.32908288
252	0x3f76e137	0.964374
253	0x3ee3e631	0.4451156
254	0x3fa3c239	1.2793647
255	0xbfb889a8	-1.4417009

weight f4 [3706, 6]
0	0xbf391094	-0.7229092
1	0x3f9fb058	1.2475691
2	0x3fb4812c	1.410192
3	0x3e6b34ee	0.2296941
4	0xbeff7066	-0.4989044
5	0x3f020c4c	0.50800014
6	0xbf7722f8	-0.96537733
7	0xbe5fb43b	-0.21846096
8	0x3f25253b	0.64509934
9	0x3e8ee1a8	0.27906537
10	0x3f09bdc0	0.5380516
11	0x3ec0392b	0.37543616
12	0xbf7c546e	-0.9856633
13	0x3e177201	0.14789583
14	0x3f7118f1	0.9417868
15	0x3f8fa424	1.1221967
16	0xbf5db8cb	-0.86610097
17	0xbc96245f	-0.01832789
18	0xbe91ac11	-0.2845159
19	0x3e9c43d5	0.30520502
20	0x3f773ea3	0.9657995
21	0x3f8a8d22	1.082432
22	0xbf0f3d50	-0.5595293
23	0xbed57c9f	-0.4169664
24	0xbe6df444	-0.23237711
25	0x3e0d3fbd	0.13793845
26	0x3f3b9d36	0.7328676
27	0x3f9ad4bb	1.209617
28	0xbeb1d88f	-0.34735534
29	0x3f31e5d4	0.69491315
30	0xbf350e98	-0.70725393
31	0x3f7be098	0.9838958
32	0x3f094648	0.53622866
33	0x3fb47e4b	1.4101042
34	0xbeba0df4	-0.3633877
35	0x3f873cb1	1.0565397
36	0x3ec92ce3	0.39292058
37	0x3f496f3b	0.7868535
38	0x3fb2a65c	1.3957019
39	0x3f302fe5	0.6882308
40	0xbf6cf5f8	-0.9256282
41	0x3dfc05fe	0.123058304
42	0xbe89caab	-0.26912436
43	0x3f62718d	0.88454515
44	0x3f9b7cc3	1.2147449
45	0x3f4651c6	0.77468526
46	0xbef0877e	-0.46978372
47	0x3f37f855	0.718633
48	0xbefdd223	-0.49574384
49	0xbef8e416	-0.48611516
50	0x3fa68610	1.3009663
51	0x3f5547f5	0.8331292
52	0xbf7748ee	-0.96595657
53	0x3e4a930d	0.19782658
54	0xbf1b3d8f	-0.60640806
55	0x3e15980c	0.14608783
56	0x3fb9fb3b	1.4529794
57	0x3f624344	0.8838389
58	0xbf7a16bc	-0.9769094
59	0x3ef25e70	0.47337675
60	0xbe83f3c2	-0.2577191
61	0xbec4e363	-0.38454732
62	0x3f7c8fb8	0.986568
63	0x3faa0edf	1.3285788
64	0xbf8944c1	-1.0724107
65	0x3e1dd271	0.15412308
66	0xbfa744a5	-1.3067824
67	0xbf2ea1a2	-0.6821538
68	0x3ef40207	0.47657797
69	0x3f74b6d8	0.955915
70	0xbe9aadf6	-0.30210847
71	0xbef59183	-0.4796258
72	0xbeb3102f	-0.34973285
73	0xbe68581a	-0.22689858
74	0x3f9c2924	1.2200055
75	0x3f813d95	1.0096918
76	0xbf8c6cb1	-1.097067
77	0xbe19cf28	-0.1502043
78	0xbd33a209	-0.0438557
79	0x3f8c4cdc	1.0960956
80	0x3f640912	0.8907634
81	0x3f8662e8	1.0498934
82	0xbd924fbe	-0.07144116
83	0x3f4963cd	0.7866791
84	0xbf5527b0	-0.83263683
85	0xbe5b210e	-0.21399328
86	0x3f752020	0.95752144
87	0x3fae9bd8	1.364131
88	0xbf818f46	-1.0121849
89	0xbef68a1d	-0.48152247
90	0x3ee71b06	0.45137805
91	0x3ea4186d	0.32049885
92	0x3f84cbd3	1.0374702
93	0x3f494620	0.7862263
94	0x3af11118	0.0018391935
95	0x3fb18710	1.3869343
96	0xbe9bed93	-0.30454692
97	0xbeba8355	-0.36428323
98	0x3f04e561	0.51912504
99	0x3fbb7833	1.4646057
100	0xbecccc00	-0.3999939
101	0xbdb7c5dc	-0.089732856
102	0xbeb2542e	-0.3482985
103	0xbf2fbd8e	-0.6864861
104	0x3fcbd5e7	1.5924653
105	0x3f2f9326	0.68583906
106	0xbf7d9828	-0.99060297
107	0x3d38cda4	0.04511799
108	0xbf2df30f	-0.67949003
109	0x3f3d8eeb	0.740462
110	0x3f392d77	0.72335
111	0x3f69349b	0.91095895
112	0xbe3019d2	-0.1719735
113	0xbec452fb	-0.3834456
114	0xbe2cdf2b	-0.16882007
115	0x3da2c08b	0.07946881
116	0x3f80afee	1.005369
117	0x3f9e443d	1.2364575
118	0xbf18253c	-0.59431815
119	0x3e93b557	0.2884929
120	0xbf26791d	-0.65028554
121	0x3e8fb623	0.28068647
122	0x3f339451	0.7014819
123	0x3f6b2cb7	0.91865104
124	0x3df3dcdc	0.1190736
125	0x3e9a193c	0.30097377
126	0xbfad4288	-1.3535929
127	0x3f512736	0.81700456
128	0x3ef50ff6	0.4786374
129	0x3f88e830	1.0695858
130	0xbeb04b38	-0.34432387
131	0x3f863c93	1.0487236
132	0x3e9dc614	0.30815184
133	0x3ee4df5c	0.4470166
134	0x3f606a55	0.8766225
135	0x3fb48df2	1.4105818
136	0xbf23505e	-0.63794506
137	0x3f2a9dbb	0.6664693
138	0xbf2f8ba9	-0.6857248
139	0x3fbac32c	1.4590812
140	0x3f9e614e	1.2373445
141	0x3f39ffd3	0.7265598
142	0xbf630ad9	-0.8868843
143	0x3dd54cad	0.10415015
144	0xbe0e247d	-0.13881107
145	0x3ca715e3	0.020396179
146	0x3f2525d9	0.64510876
147	0x3f2cf0b9	0.67554814
148	0x3eb5bd19	0.35495833
149	0xbf8f2ffd	-1.118652
150	0x3de1e6e2	0.110303655
151	0xbf5a25f5	-0.8521417
152	0x3f15388b	0.582894
153	0x3f386098	0.7202239
154	0xbdf285a1	-0.11841894
155	0xbf9af89e	-1.2107122
156	0xbd0963a4	-0.03354229
157	0x3decb578	0.1155805
158	0x3f9bfad0	1.2185917
159	0x3f8dc77c	1.1076503
160	0xbf6e54ec	-0.9309833
161	0x3e6ce008	0.23132336
162	0x3f20e19a	0.6284424
163	0x3c476bb7	0.012171677
164	0x3f95c91f	1.1702002
165	0x3f62a4fc	0.88532996
166	0xbf741dea	-0.95358145
167	0xbf886e96	-1.0658748
168	0xbfebebcf	-1.8431338
169	0x3f47977f	0.7796554
170	0x3f81eca7	1.0150346
171	0xbdee74b6	-0.116433546
172	0x3dad4d2a	0.084619835
173	0xbeca55cf	-0.39518592
174	0xbfb18ad7	-1.3870496
175	0x3f8debde	1.1087606
176	0x3f279f55	0.65477496
177	0x3f7d1a88	0.9886861
178	0xbe76efbf	-0.24114893
179	0x3f80742a	1.003545
180	0xbe1d7258	-0.1537565
181	0xbe12543c	-0.14289945
182	0x3f29e411	0.66363627
183	0x3f5fa879	0.87366444
184	0x3de850f4	0.113435656
185	0x3ea78247	0.3271658
186	0xbf3ec4b4	-0.74518895
187	0x3f22d2f4	0.6360314
188	0x3efc2500	0.4924698
189	0x3efff699	0.49992827
190	0x3f091066	0.5354065
191	0xbf849088	-1.0356607
192	0x3dd69164	0.1047695
193	0xbef90603	-0.486374
194	0x3ef50732	0.47857052
195	0x3f93cada	1.154628
196	0xbda80a57	-0.08205097
197	0xbe92af01	-0.28649142
198	0xbdf3cb89	-0.119040556
199	0xbe35a26c	-0.1773774
200	0x3f4fce46	0.81174123
201	0x3fb5ae7f	1.4193877
202	0xbf2f656f	-0.6851415
203	0x3ecff552	0.40616852
204	0xbeabdc6b	-0.33566603
205	0xbd93eefa	-0.072233155
206	0x3ef3f263	0.47645864
207	0x3fcb7f66	1.5898254
208	0xbed1584b	-0.40887675
209	0xbe4e9eb3	-0.20177726
210	0xbdadc3a7	-0.08484583
211	0xbf394a16	-0.7237867
212	0x3f6223da	0.88335955
213	0x3f20bb01	0.62785345
214	0xbeab260e	-0.3342747
215	0xbf3166d9	-0.6929756
216	0xbf0fb614	-0.56137204
217	0xbf891d4f	-1.0712069
218	0x3f8ae53b	1.0851206
219	0xbf1a6034	-0.60303044
220	0x3f8097fd	1.0046383
221	0x3f32cb65	0.69841605
222	0xbf06777e	-0.5252608
223	0xbf2c123e	-0.67215335
224	0x3f946cbb	1.1595682
225	0x3f96f816	1.179446
226	0xbf744ecd	-0.9543274
227	0xbdfc4e45	-0.12319616
228	0xbe3cac51	-0.18425108
229	0x3fb50baf	1.414419
230	0x3f8dc72e	1.107641
231	0x3f9b056f	1.2111033
232	0xbf21eb85	-0.6325
233	0x3e8bd9da	0.27314645
234	0xbe3a51d8	-0.18195283
235	0x3f54c88d	0.83118516
236	0x3f613b8a	0.87981474
237	0x3f9f3509	1.243806
238	0xbf351a4d	-0.70743257
239	0xbde7513d	-0.11294792
240	0xbe796be6	-0.24357566
241	0x3ea3b9e1	0.31977752
242	0x3f703cc4	0.9384272
243	0x3faac934	1.3342652
244	0xbf4e0add	-0.80485326
245	0x3f47f403	0.7810671
246	0xbee4557c	-0.4459647
247	0x3f6a6e30	0.9157438
248	0x3f92f4b1	1.1480924
249	0x3f3ffd41	0.7499581
250	0xbed88cc6	-0.42294902
251	0xbe6a271c	-0.22866482
252	0xbf3b2079	-0.73096424
253	0x3dfcdf3f	0.12347268
254	0x3f88d5fd	1.0690304
255	0x3f612873	0.87952346

weight f4 [1, 6]
0	0xbef5961f	-0.47966096
1	0x3efe31a8	0.4964726
2	0x3f0857d2	0.53259003
3	0xbf0961b3	-0.536647
4	0xbf0fa519	-0.56111294
5	0x3efc0db1	0.49229196
