trained_models/iautorec_ml.pt (torch, 799775 bytes, 4 tensors)

weight f4 [16, 6040]
-0.07316405 0.025480395 0.105127186 -0.067723416 -0.03664162 -0.06516943 -0.009138104 -0.033957496
0.0758729 0.045171633 0.053878736 -0.003884454 0.1737277 0.09360157 0.08922204 -0.04809723
0.0039807516 0.1150157 0.1513408 0.026918547 -0.026819084 -0.09299443 -0.049186233 0.08843829
0.031049995 -0.046450336 -0.08578034 -0.09401122 -0.040618338 0.10649129 0.104097344 0.09424818
-0.078550376 -0.012701587 -0.0980621 0.013368323 0.06871063 -0.020425633 0.006588564 -0.0070358613
0.04735021 0.06456692 -0.06228907 0.030260956 0.050664715 -0.23774408 0.014352975 0.012144305
0.015042882 0.12236524 0.103598185 0.06264479 -0.010493371 0.025286442 0.0036694673 0.028004179
-0.16096859 -0.09084492 0.12678121 0.06823762 -0.121334754 0.1111741 -0.06411747 0.024029838
-0.011150829 -0.07394893 0.13171652 0.017338261 0.08887904 -0.067557454 0.047033295 0.035986315
0.03812766 0.025274606 -0.04899139 0.045064613 0.11350141 0.012177614 0.012324903 -0.069637075
0.043730244 0.022517346 -0.051398117 -0.09093294 0.037929658 -0.11411976 -0.058694303 -0.009375995
0.033892807 0.07202569 -0.023062618 -0.02232162 -0.0058945282 -0.041645885 -0.009691187 -0.0025645308
-0.042467766 0.13301538 0.08257011 -0.07125675 -0.056179874 0.07571297 -0.09763177 -0.047364235
-0.06344174 -0.040438052 0.11459506 0.053740904 0.14266135 -0.019709218 -0.09649478 0.04393413
0.014452882 -0.13965376 0.099837735 0.039349742 -0.16040558 0.076200895 0.020209275 0.013470268
0.16796885 0.0038925693 0.054767437 -0.06426334 0.042738706 0.026642593 0.07732709 0.029727686
-0.07605428 0.042604893 0.019707302 -0.122276366 -0.08466413 0.1288759 0.02898598 -0.10824912
-0.008421324 0.19264674 -0.07125141 -0.062634364 -0.05969624 0.016357914 -0.007880935 0.01865994
-0.02612945 0.14083791 0.085087106 -0.026451558 0.040218923 -0.008519547 0.013349946 0.12611388
0.1503431 0.074455336 -0.05106043 -0.051237285 0.008035715 0.015947314 -0.095925935 -0.0402613
0.1539564 -0.020593435 0.019024402 0.21752493 -0.24007457 0.010434814 -0.06153831 0.040144775
-0.050611153 -0.1720281 -0.0019375492 -0.027957242 -0.07558409 0.030550322 -0.046549752 -0.10172932
-0.015732488 0.16627975 0.014325441 -0.19702752 0.0041645146 0.011601398 -0.16056149 0.0917345
0.017927578 -0.07245131 0.115970634 -0.10250638 0.015354756 -0.019325797 -0.013182591 -0.048069354
-0.09808496 -0.034706574 0.07349647 -0.09177081 -0.046232045 0.009245006 0.020504134 0.020811846
0.030708242 -0.05885346 0.15256386 0.016258216 0.09003995 0.01284573 0.04626715 -0.07866609
-0.06496663 -0.021730836 -0.007442498 0.0073033874 0.026379684 0.0750899 0.05420361 -0.047287412
-0.016392015 -0.045215826 -0.007067549 -0.009609552 0.04450572 0.09626383 0.103916 0.09613791
-0.01555812 -0.119922295 0.0010093313 0.00908439 0.27016556 -0.09031333 0.009158035 0.0368335
-0.023787424 -0.12038383 -0.1464786 -0.038839053 0.07302328 0.03001954 -0.111697435 0.1173183
-0.024075447 0.11049874 0.16783145 0.070009135 0.00034569006 -0.002508114 -0.11748024 0.009487975
-0.023643505 -0.030366305 -0.03529141 0.032207794 0.052794635 0.038511954 0.13106737 0.029240372
00000000: 09d7 95bd 43bc d03c ec4c d73d 93b2 8abd
00000010: 8615 16bd 8d77 85bd fcb7 15bc 0417 0bbd
00000020: 4063 9b3d e405 393d f3af 5c3d 5392 7ebb
00000030: ade5 313e 2eb2 bf3d 0bba b63d 9a01 45bd
00000040: f770 823b 5a8d eb3d 15f9 1a3e 4984 dc3c
00000050: b2b3 dbbc dd73 bebd 8177 49bd 221f b53d
00000060: 8f5c fe3c b542 3ebd 9aad afbd f488 c0bd
00000070: 6a5f 26bd 1b18 da3d fd30 d53d 3105 c13d
00000080: 05df a0bd 511a 50bc c8d4 c8bd d006 5b3c
00000090: 29b8 8c3d a853 a7bc e1e4 d73b 158d e6bb
000000a0: 4bf2 413d a93b 843d d322 7fbd d3e5 f73c
000000b0: ce85 4f3d 2f73 73be be28 6b3c e8f8 463c
000000c0: 6c76 763c a09a fa3d 492b d43d e94b 803d
000000d0: 63ec 2bbc 8325 cf3c 727b 703b 0569 e53c
000000e0: f3d4 24be e70c babd efd2 013e 2ac0 8b3d
000000f0: 5b7e f8bd 3faf e33d 0550 83bd 39da c43c
00000100: f7b1 36bc 8972 97bd b2e0 063e f808 8e3c
00000110: 3706 b63d 905b 8abd fca5 403d 6366 133d
00000120: c02b 1c3d b10c cf3c 32ab 48bd ac95 383d
00000130: 6d73 e83d 9d84 473c 64ee 493c e29d 8ebd
00000140: 7c1e 333d 4c76 b83c d586 52bd 0d3b babd
00000150: 215c 1b3d 9fb7 e9bd 7069 70bd c69d 19bc
00000160: 2fd3 0a3d 3482 933d d1ed bcbc d4db b6bc
00000170: e326 c1bb e094 2abd c9c7 1ebc b011 28bb
00000180: aef2 2dbd 2f35 083e 851a a93d 0fef 91bd
00000190: de1c 66bd 670f 9b3d 2af3 c7bd 0001 42bd
000001a0: beed 81bd 5fa2 25bd d1b0 ea3d 6c1f 5c3d
000001b0: d115 123e 3a75 a1bc 0e9f c5bd 46f4 333d
000001c0: c8cb 6c3c 6501 0fbe ba77 cc3d 322d 213d
000001d0: 5c41 24be 370f 9c3d ec8d a53c 66b2 5c3c
000001e0: 0700 2c3e 7a1a 7f3b d253 603d 7f9c 83bd
000001f0: c80e 2f3d 9141 da3c aa5d 9e3d 7a87 f33c
00000200: 59c2 9bbd 7882 2e3d 3571 a13c 086c fabd
00000210: 6364 adbd 0bf8 033e 0274 ed3c b7b1 ddbd
00000220: 98f9 09bc 3045 453e 42ec 91bd 7246 80bd
00000230: 0b84 74bd 0801 863c 0a1f 01bc bbdc 983c
00000240: 6e0d d6bc d037 103e 2642 ae3d f0b0 d8bc
00000250: 99bc 243d 9295 0bbc bbb9 5a3c ff23 013e
00000260: 8bf3 193e 0a7c 983d be24 51bd 30de 51bd
00000270: 3ba8 033c f1a3 823c d174 c4bd 08e9 24bd
00000280: bfa6 1d3e 90b3 a8bc 10d9 9b3c dbbe 5e3e
00000290: 1cd6 75be c8f6 2a3c 980f 7cbd d96e 243d
000002a0: a44d 4fbd 2228 30be 5df5 fdba 9606 e5bc
000002b0: d5cb 9abd ab44 fa3c f4aa 3ebd 7657 d0bd
000002c0: 6be1 80bc 3d45 2a3e 41b5 6a3c 95c1 49be
000002d0: 7b76 883b ca13 3e3c 3b6a 24be 4cdf bb3d
000002e0: dbdc 923c 5a61 94bd 0382 ed3d ddee d1bd
000002f0: 8492 7b3c 2251 9ebc cbfb 57bc 5fe4 44bd
00000300: c4e0 c8bd 7b28 0ebd 5185 963d 56f2 bbbd
00000310: d05d 3dbd 5e78 173c 49f8 a73c 9b7d aa3c
00000320: da8f fb3c 5310 71bd b339 1c3e f32f 853c
00000330: de66 b83d e676 523c a082 3d3d b01b a1bd
00000340: 390d 85bd de04 b2bc 33e0 f3bb 4151 ef3b
00000350: 351a d83c bcc8 993d 9b04 5e3d 72b0 41bd
00000360: 8c48 86bc 3b34 39bd e696 e7bb 6271 1dbc
00000370: a14b 363d f925 c53d e9d1 d43d f4e3 c43d
00000380: 7ce7 7ebc d299 f5bd 8a4b 843a b1d6 143c
00000390: 2453 8a3e 32f6 b8bd 950b 163c b9de 163d
000003a0: d8dd c2bc cc8b f6bd 7cfe 15be b315 1fbd
000003b0: 3b8d 953d 8aeb f53c a0c1 e4bd 9444 f03d
000003c0: df39 c5bc 2a4d e23d 02dc 2b3e f360 8f3d
000003d0: bc3d b539 2c5f 24bb 7b99 f0bd 7473 1b3c
000003e0: 06b0 c1bc c2c2 f8bc ba8d 10bd 52ec 033d
000003f0: 303f 583d b6be 1d3d 8636 063e 8189 ef3c

bias f4 [16]
-0.076375104 0.42522204 0.4672557 0.55101293 -0.42121553 0.12406707 0.5279843 -0.02602262
0.65564245 0.5628904 0.23529695 -0.6625606 0.5124257 0.6779439 -0.4024089 0.56050956
00000000: 8d6a 9cbd b4b6 d93e 243c ef3e 2f0f 0d3f
00000010: 90a9 d7be e016 fe3d fb29 073f 642d d5bc
00000020: 2fd8 273f 9619 103f aff1 703e 929d 29bf
00000030: 552e 033f bb8d 2d3f 8a08 cebe 8e7d 0f3f

weight f4 [6040, 16]
0.26757088 -0.114226304 0.35748914 0.27136388 0.07868719 0.2518787 0.3131725 0.27352363
0.29913467 0.3007914 0.3194249 0.026153076 0.37746283 0.30889818 0.24334233 0.28977603
0.28729126 0.22605804 0.21561544 0.27454433 0.2743935 0.3783225 0.20845386 0.15760963
0.23274818 0.25841856 0.23934793 0.17359585 0.24680005 0.26510668 0.14899206 0.27443808
0.46695605 0.3342585 0.24758248 0.26902208 0.12672798 -0.14311993 0.25711513 0.07948979
0.26202214 0.28578272 0.25641355 0.23112893 0.31028968 0.25515205 0.376328 0.2573574
0.16578706 0.61594534 0.21737349 0.24091758 0.22635081 0.30126736 0.23041813 0.19452503
0.23269019 0.22123834 0.25357664 0.28241417 0.27915776 0.23252454 0.25016582 0.23855233
-0.117388695 0.5413712 0.049136493 0.1537507 0.3778437 0.56278443 0.19261289 0.3338346
0.18872797 0.24555507 0.108173266 -0.057204623 0.13885878 0.11865941 0.4255857 0.21155609
0.21469724 -0.16222622 0.3608464 0.31512833 0.06130426 -0.17877589 0.35455018 0.15974423
0.34071478 0.3005402 0.33894533 -0.0015254036 0.2945408 0.2943935 0.35046664 0.33914503
0.23372938 0.107239485 0.2549901 0.3008621 0.18217745 0.11990519 0.33039832 0.4845294
0.27107945 0.2498565 0.2777823 0.35092092 0.28435186 0.29774395 0.25341824 0.28193405
0.27778196 0.42171082 0.27288863 0.22900808 0.44734013 0.13455322 0.2545681 0.14061269
0.27802795 0.2848059 0.23326398 0.24335766 0.25890458 0.2758489 0.2771008 0.29610562
0.25640333 0.15663151 0.20279221 0.2572326 0.38194144 0.3314259 0.15854508 0.42785648
0.21915264 0.2037965 0.17481223 0.32169777 0.24784614 0.1366993 0.33381194 0.18676582
0.40338427 -0.2991378 0.31202948 0.3648615 0.17743237 0.060382288 0.24716166 0.19242945
0.39349043 0.34963617 0.25513092 -0.083817236 0.32509595 0.37824777 0.29663327 0.3640793
0.19522129 0.8617272 0.15107493 0.22484605 0.2194805 0.35698184 0.13393152 0.37626198
0.13688403 0.19855161 0.14126417 0.2966437 0.11861451 0.18687059 0.3715006 0.19542238
0.34814402 0.3775929 0.17643635 0.19530743 0.1264702 0.30519533 0.23256308 0.41721684
0.24284688 0.23132738 0.21719973 0.23565543 0.18793505 0.19447066 0.16205464 0.22903034
0.25499853 0.39527255 0.21235092 0.2609388 -0.028860558 0.47091797 0.20777744 0.16462086
0.25187278 0.23694603 0.245875 0.081076704 0.2557237 0.2808244 0.33982375 0.24715969
0.35141078 0.5422976 0.17901713 0.1663367 0.41531187 0.3919412 0.20527707 0.090108976
0.18872485 0.18307577 0.245099 -0.023946539 0.21045314 0.19681798 0.10893272 0.17450751
0.4458961 0.3023281 0.2505863 0.19676635 0.008316048 -0.21661729 0.19324544 0.10880268
0.25693467 0.30585867 0.24423082 0.2708356 0.22604181 0.29239666 0.27468506 0.21132
0.60375714 -0.04688112 0.23551847 0.21946755 0.16971277 0.1397263 0.20075825 -0.077701315
0.23956853 0.18507494 0.36668655 0.37936026 0.20568557 0.21374188 0.554816 0.18286102
00000000: 0dff 883e 7bef e9bd d108 b73e 35f0 8a3e
00000010: c026 a13d 3ff6 803e 2558 a03e 4a0b 8c3e
00000020: 2e28 993e 5501 9a3e a98b a33e fa3e d63c
00000030: cf42 c13e e727 9e3e bb2e 793e 865d 943e
00000040: d717 933e c27b 673e 4bca 5c3e 1391 8c3e
00000050: 4e7d 8c3e 7db3 c13e ee74 553e 6b64 213e
00000060: 8a55 6e3e 704f 843e a017 753e 1cc3 313e
00000070: 27b9 7c3e 10bc 873e 6091 183e 2683 8c3e
00000080: dd14 ef3e ee23 ab3e 4386 7d3e 43bd 893e
00000090: fbc4 013e 088e 12be 98a4 833e 8bcb a23d
000000a0: c427 863e 1d52 923e a348 833e 10ad 6c3e
000000b0: 4ade 9e3e 4aa3 823e 10ae c03e 59c4 833e
000000c0: 15c4 293e 98ae 1d3f 2897 5e3e 19b3 763e
000000d0: 82c8 673e b73f 9a3e bbf2 6b3e 9231 473e
000000e0: 5646 6e3e 4e8c 623e ccd4 813e 9798 903e
000000f0: c4ed 8e3e ea1a 6e3e bc15 803e 1047 743e
00000100: 7c69 f0bd 4e97 0a3f 5943 493d d370 1d3e
00000110: bb74 c13e a412 103f 503c 453e 5eec aa3e
00000120: e841 413e ca72 7b3e f289 dd3d 654f 6abd
00000130: ff30 0e3e b403 f33d 5ee6 d93e 29a2 583e
00000140: 98d9 5b3e a11e 26be dcc0 b83e 8058 a13e
00000150: 2d1a 7b3d 0711 37be 9a87 b53e fe93 233e
00000160: 2b72 ae3e 68e0 993e 3e8a ad3e 0df0 c7ba
00000170: 0dce 963e bfba 963e 5d70 b33e 6ba4 ad3e
00000180: c156 6f3e 60a0 db3d 108e 823e 990a 9a3e
00000190: ba8c 3a3e da90 f53d f829 a93e 3d14 f83e
000001a0: edca 8a3e 62da 7f3e 7b39 8e3e e8ab b33e
000001b0: 9196 913e e571 983e 09c0 813e a959 903e
000001c0: 7039 8e3e 7bea d73e 0fb8 8b3e 1881 6a3e
000001d0: c409 e53e 52c8 093e c056 823e c6fc 0f3e
000001e0: ae59 8e3e 14d2 913e c1dc 6e3e c032 793e
000001f0: 248f 843e 113c 8d3e 28e0 8d3e 289b 973e
00000200: 4c47 833e 0364 203e c3a8 4f3e feb3 833e
00000210: d48d c33e a8b0 a93e a459 223e 0110 db3e
00000220: 8d69 603e 08b0 503e fa01 333e 92b5 a43e
00000230: 61cb 7d3e e7fa 0b3e 66e9 aa3e 8a3f 3f3e
00000240: 6288 ce3e 9728 99be 54c2 9f3e 20cf ba3e
00000250: d5b0 353e 6b53 773d f217 7d3e 3a0c 453e
00000260: 9477 c93e 8303 b33e 85a0 823e 5fa8 abbd
00000270: fa72 a63e b1a9 c13e 51e0 973e 9a68 ba3e
00000280: 17e8 473e 279a 5c3f 63b3 1a3e 0b3e 663e
00000290: 7fbf 603e 53c6 b63e 5825 093e 69a5 c03e
000002a0: 542b 0c3e 1d51 4b3e 8ea7 103e afe1 973e
000002b0: 2aec f23d 015b 3f3e 5435 be3e ce1c 483e
000002c0: ef3f b23e db53 c13e bbab 343e acfe 473e
000002d0: 6781 013e 9042 9c3e 0425 6e3e 729d d53e
000002e0: daac 783e 16e1 6c3e 9b69 5e3e a84f 713e
000002f0: 0c72 403e 5123 473e a7f1 253e ee86 6a3e
00000300: 2b8f 823e 2a61 ca3e 8572 593e c599 853e
00000310: fa6c ecbc 291c f13e 9cc3 543e 5f92 283e
00000320: 78f5 803e fba1 723e a8c6 7b3e 8b0b a63d
00000330: 38ee 823e 37c8 8f3e 61fd ad3e 6e17 7d3e
00000340: 1dec b33e 04d4 0a3f 4450 373e 2b54 2a3e
00000350: c2a3 d43e 84ac c83e 2734 523e 0e8b b83d
00000360: 1641 413e 3778 3b3e 3bfb 7a3e 882b c4bc
00000370: 0781 573e a78a 493e 1e18 df3d 19b2 323e
00000380: 7e4c e43e c0ca 9a3e d94c 803e 1e7d 493e
00000390: 0940 083c ecd0 5dbe 22e2 453e f1d3 de3d
000003a0: f18c 833e 8299 9c3e a517 7a3e f7aa 8a3e
000003b0: 8177 673e 04b5 953e 85a3 8c3e 4564 583e
000003c0: d48f 1a3f 6b06 40bd c12b 713e 1abc 603e
000003d0: 2fc9 2d3e 6914 0f3e 9293 4d3e de21 9fbd
000003e0: 7451 753e 4984 3d3e 57be bb3e 823b c23e
000003f0: 3d9f 523e 27df 5a3e 6c08 0e3f eb3f 3b3e

bias f4 [6040]
0.37335926 0.24953754 0.29227826 0.2909937 0.20459408 0.36519268 0.35632312 0.2982778
0.21919182 0.3710814 0.19073091 0.30634624 0.26588917 0.24094462 0.2835667 0.23885986
0.26462516 0.14686032 0.24239552 0.35411847 0.31684762 0.28757843 0.2637427 0.23679337
0.36248055 0.25240412 0.15140526 0.25286427 0.28319204 0.33037776 0.23370492 0.19982037
0.27724874 0.2407385 0.20684299 0.30555758 0.18020177 0.2811124 0.23781885 0.21720505
0.23842119 0.31351656 0.31290653 0.17201397 0.19126621 0.6120598 0.33649462 0.19138753
0.2806287 0.24774696 0.34653097 0.26774836 0.31737617 0.2855583 0.35006925 0.26083452
0.15322472 0.23109977 0.18244962 0.26839808 0.24173756 0.2583669 0.20383325 0.37978813
0.36649397 0.29007596 0.3293872 0.2519129 0.31011418 0.2999155 0.4005937 0.29521233
0.29205447 0.26946586 0.56786567 0.28228754 0.17423071 0.2565996 0.2440751 0.33436757
0.2432134 0.33119664 0.24849647 0.20474699 0.2876306 0.4928123 0.054174293 0.23426393
0.22657873 0.3152361 0.38875043 0.15441905 0.1453862 0.44707453 0.22705172 0.25688136
0.2768999 0.32998917 0.2132536 0.24984355 0.5966581 0.17868674 0.4316497 0.29023385
0.26832736 0.28722903 0.2787602 0.24919924 0.34707 0.17760383 0.2318082 0.29501352
0.34027183 0.2666393 0.36896506 0.36558595 0.28309014 0.25402376 0.44491532 0.23637623
0.43573448 0.19349456 0.2546127 0.38664198 0.33429268 0.27545 0.2611209 0.4457442
0.2739182 0.24384277 0.17389287 0.34169206 0.34940016 0.13259691 0.16740789 0.31638205
0.34586868 0.34022298 0.27375326 0.24793199 0.29329047 0.23085828 0.23097187 0.19675063
0.16059445 0.19599265 0.25021166 0.3442685 0.27016258 0.2917505 0.25164393 0.42397577
0.41065535 0.2453631 0.1638608 0.3923112 0.30119622 0.37805587 0.31357902 0.31605846
0.26768568 0.35027727 0.11056756 0.3838146 0.36713162 0.27004465 0.23122267 0.29803154
0.3140413 0.19904296 0.3323925 0.33843693 0.17794046 0.22505458 0.28753865 0.38941526
0.31084594 0.30594605 0.09235656 0.24507433 0.1899528 0.24238206 0.2896244 0.26023
0.35688636 0.35090706 0.33357504 0.2546813 0.24017194 0.27615878 0.2598825 0.11837497
0.26332438 0.38759574 0.3264554 0.3180263 0.23996083 0.269334 0.29323396 0.33012867
0.33381736 0.21964142 0.16651298 0.24763595 0.31259814 0.2525863 0.27450237 0.20868619
0.36433282 0.3641466 0.42273548 0.3838126 0.40992096 0.19339174 0.43019918 0.2774676
0.24658643 0.2184082 0.28033456 0.26347905 0.22871913 0.3112221 0.27465048 0.1696305
0.14707977 0.35252282 0.20741877 0.29332408 0.23408912 0.30770588 0.22437856 0.15729882
0.35573962 0.39213714 0.22399317 0.24409986 0.19017299 0.28707927 0.2671376 0.24172619
0.2438708 0.2621862 0.20971668 0.26820126 0.16110858 0.4135044 0.30927485 0.4697629
0.2836597 0.3851796 0.32744512 0.38197902 0.25649574 0.4114816 0.36779192 0.23771928
00000000: f228 bf3e c586 7f3e 7fa5 953e 20fd 943e
00000010: 1c81 513e 89fa ba3e fc6f b63e deb7 983e
00000020: d273 603e 62fe bd3e f74e 433e 6ad9 9c3e
00000030: a022 883e 30ba 763e a82f 913e ae97 743e
00000040: f37c 873e 8d62 163e 8836 783e 044f b53e
00000050: da39 a23e 7b3d 933e 4809 873e f679 723e
00000060: 0d97 b93e 1d3b 813e fb09 1b3e 6d77 813e
00000070: 8cfe 903e 4627 a93e 5850 6f3e b69d 4c3e
00000080: 8cf3 8d3e 2784 763e a6ce 533e 0b72 9c3e
00000090: d086 383e f7ed 8f3e c986 733e 006b 5e3e
000000a0: af24 743e 3e85 a03e 4935 a03e 6e24 303e
000000b0: 4adb 433e f3af 1c3f 0649 ac3e 18fb 433e
000000c0: 91ae 8f3e 61b1 7d3e 826c b13e 5016 893e
000000d0: 217f a23e b334 923e 473c b33e 1a8c 853e
000000e0: f1e6 1c3e 6ba5 6c3e 13d4 3a3e 796b 893e
000000f0: 0d8a 773e ab48 843e aab9 503e 9773 c23e
00000100: 19a5 bb3e d684 943e 70a5 a83e bafa 803e
00000110: 49c7 9e3e 868e 993e 9e1a cd3e 1226 973e
00000120: 2a88 953e 6ef7 893e a55f 113f fe87 903e
00000130: 8969 323e 0661 833e d3ee 793e 3a32 ab3e
00000140: ef0c 793e 9b92 a93e dc75 7e3e 32a9 513e
00000150: 5144 933e e551 fc3e dde5 5d3d e2e2 6f3e
00000160: 4104 683e a066 a13e 4c0a c73e 0720 1e3e
00000170: 1fe0 143e f4e6 e43e 3f80 683e f485 833e
00000180: d3c5 8d3e 57f4 a83e 275f 5a3e fdd6 7f3e
00000190: 96be 183f a8f9 363e 3101 dd3e 8899 943e
000001a0: 3462 893e af0f 933e a8b9 8e3e 162e 7f3e
000001b0: 29b3 b13e c7dd 353e 215f 6d3e 030c 973e
000001c0: 1c38 ae3e f284 883e fde8 bc3e 152e bb3e
000001d0: 31f1 903e 670f 823e f1cb e33e 9c0c 723e
000001e0: 9718 df3e 7023 463e 995c 823e f0f5 c53e
000001f0: 6928 ab3e c807 8d3e a3b1 853e 9538 e43e
00000200: 023f 8c3e ebb1 793e f910 323e 43f2 ae3e
00000210: 94e4 b23e 7cc7 073e f96c 2b3e d4fc a13e
00000220: b315 b13e b531 ae3e 6329 8c3e e2e1 7d3e
00000230: 2b2a 963e 1d66 6c3e e483 6c3e ff78 493e
00000240: df72 243e 4cb2 483e be1b 803e f643 b03e
00000250: c052 8a3e 5260 953e 79d7 803e 5a13 d93e
00000260: 6b41 d23e 7740 7b3e 20cb 273e 03dd c83e
00000270: 6436 9a3e 8a90 c13e 6e8d a03e 6ad2 a13e
00000280: 190e 893e 8b57 b33e 3f71 e23d 5983 c43e
00000290: adf8 bb3e 4b43 8a3e a3c5 6c3e 9797 983e
000002a0: 05ca a03e ebd1 4b3e 5a2f aa3e 9b47 ad3e
000002b0: 0636 363e b574 663e 4438 933e 7061 c73e
000002c0: 3327 9f3e f6a4 9c3e 7025 bd3d c4f4 7a3e
000002d0: fd82 423e 0133 783e a649 943e de3c 853e
000002e0: cfb9 b63e 17aa b33e 59ca aa3e 9665 823e
000002f0: a2ef 753e af64 8d3e 520f 853e 946e f23d
00000300: 74d2 863e f372 c63e 2a25 a73e 58d4 a23e
00000310: 4bb8 753e 25e6 893e c322 963e a006 a93e
00000320: 1cea aa3e aee9 603e 6182 2a3e 4794 7d3e
00000330: dd0c a03e fe52 813e 938b 8c3e d5b1 553e
00000340: d589 ba3e 6c71 ba3e c970 d83e 1683 c43e
00000350: 29e1 d13e 7c08 463e 1143 dc3e 3c10 8e3e
00000360: 2781 7c3e 66a6 5f3e 0388 8f3e bae6 863e
00000370: 5935 6a3e 8158 9f3e fd9e 8c3e 9eb3 2d3e
00000380: 149c 163e df7d b43e 9665 543e 932e 963e
00000390: 0fb5 6f3e a08b 9d3e 7ec3 653e f112 213e
000003a0: 8123 b63e 33c6 c83e 775e 653e 50f5 793e
000003b0: b5bc 423e 0efc 923e 42c6 883e 1287 773e
000003c0: 44b9 793e 453d 863e f8bf 563e ad51 893e
000003d0: a6f9 243e d9b6 d33e 4659 9e3e c384 f03e
000003e0: d83b 913e 4336 c53e e3a6 a73e c192 c33e
000003f0: 6953 833e b7ad d23e 394f bc3e af6c 733e
